config/parN_log.onnx (onnx, 857897 bytes, 21 tensors)

edge_conv_block.edge_conv.nn.0.weight f4 [256, 14]
00000000: f849 373d 8a7c 90bc d8f8 e83d d984 3e3e
00000010: 1f3d 4b3d 00b3 8abe c7b0 abbc 7020 f33d
00000020: a682 d4bd 64e2 f23d fb61 093e 1917 fa3d
00000030: 4ec6 223e ce11 5c3e 89fc 6cbe b507 16ba
00000040: 89c7 ccbd 0de9 dc3d 415e 493e d18c 3dbe
00000050: 9359 743e bb4b d8bd 45e4 173e b96c d7bd
00000060: c127 e7bb cc2d 83be 4e38 91bd 24dd 30be
00000070: 954f ebbb 64eb 5f3e c030 0e3e 44e6 a9bd
00000080: 42ee 9c3c 6a3c 78bd b4f0 833e 4cae ac3d
00000090: 701d cbbd db05 25be c634 0cbd 4f01 683d
000000a0: 1c10 11bd d112 26be 6d61 5a3e 04be 4c3e
000000b0: 9423 223e 6151 fabc 5e23 61bd ced4 3b3e
000000c0: fba6 0bbe be48 dabd 9976 6fbe b047 623e
000000d0: 6720 a03d d3c8 723e 5bda 093d cfb5 67bc
000000e0: df0d 0b3c 4f30 a43d 8ca4 103d 6370 0a3e
000000f0: 191d 54bc 43d6 1ebe 2246 c13d 2da7 983d
00000100: a511 4ebe 3062 ba3d 9cf8 90be e853 63be
00000110: c09a 02be ea84 26be e2e5 f93d 55ac 663e
00000120: 90e7 abbd 5633 483e 9f1f 523e 1620 0e3d
00000130: b2a7 dc3c c8e3 393d 2d84 3ebd 7c2d 2f3e
00000140: 5aa2 95be 8983 62be 6843 aa3d a209 603e
00000150: 32ac 8e3e de65 57be e2ce fbbd 5d74 773e
00000160: 38ef 523e 3c54 4d3e 2336 6fbc 4701 633e
00000170: 078f 593e a53a d8bd 0f3e b53c 8b39 7cbc
00000180: 6007 1ebd ebc4 1c3d 2690 263e 9318 5d3e
00000190: d4cf 923d daf8 fc3c 447b 323e 0e3b ed3d
000001a0: 9b98 07be 4518 0a3e d3af 69be 102e 013e
000001b0: 70ab 5fbe cc5d e93d ba91 1a3e 2a3c c43d
000001c0: 6899 85bd b9c7 c9bd 8168 f3bc 59a3 153e
000001d0: 3e12 943e d865 b73e 033f 3c3e 98a7 3bbc
000001e0: 5483 2c3d a723 3fbe 3ad8 73bd f398 5f3c
000001f0: 1c1a 8abe 30b6 263e 499c 19be de4d 03be
00000200: eaa0 283e 0093 913b 941f 953d 7e71 7ebe
00000210: 130b bf3d bd9a fbbd c3c2 66be 1ccc 45be
00000220: d42b f0bd b03b 38bd d490 ec3d 8445 2a3e
00000230: 1bb0 cdbd 0783 a33d 3349 7a3e 561a d6bb
00000240: 98ef 25be f7c1 6bbe f9e5 82be 559e 22be
00000250: 435c 643e 3717 473e 7888 ccbc e9c2 5cbe
00000260: 7313 31be 3918 13bd 9ba9 dbbd 3d22 6cbe
00000270: ecba 25be 52f6 ce3c a277 86bc 7223 42be
00000280: 0290 933d 18ba 143e 14cc bcbc 76c8 b63d
00000290: 94f3 583e c29c 953e 683d d33d 2699 74be
000002a0: 167a f0bd 1d42 5abe 07f1 57be 9bb0 6fbe
000002b0: 41ca 15be 8da9 a33d dab0 023e 5609 e53d
000002c0: 4ed9 1c3e 30f3 f73d 4eee 8c3e 10df 763e
000002d0: aa27 8b3e 17c9 c43d 04f5 81be 2421 4cbe
000002e0: a286 5b3e 652f ef3d 6daf 01bd 2d04 483e
000002f0: f4b9 2c3e 9aea 2c3e f1a9 803e 95ed a13d
00000300: 0229 ea3d e0e2 083e 8296 5abe 58d1 60be
00000310: c9b6 41be e2f6 01bc 3a98 abbe 8c4c 27be
00000320: 61c8 883d 732b 9abe f11c d93d 6fd5 04bd
00000330: 7f41 053e 2b24 a93c 2b79 0a3e abc2 42be
00000340: f436 1c3e 5279 3ebe 480f bd3d c3e7 2b3e
00000350: f45d 6fbe b99c 5f3e 5b8a e0bc b6a3 6f3e
00000360: 1b92 943d 9de6 1d3e ce2b 15be 9f54 1c3e
00000370: 3273 0c3e 2e1a e4bd 5903 003e c5ec cbbc
00000380: 93b0 8bbd 66da 32be d1d1 3cbe 6d36 9d3d
00000390: be5e 353e 6a57 aebd 16f1 683e 01b0 43be
000003a0: c4d7 2b3e 633c 8b3e 53b5 d1bd 457e 2fbe
000003b0: b362 863e cab8 9c3a eb07 333e beec 9bbe
000003c0: d43a f6bc 295d 7bbe 45fb a13d f48f acbc
000003d0: df8d 533d a1e7 e9bd dade 823e 071c 22be
000003e0: 00e0 8bbd 3e8f cd3d 821b c6bd 8acb 013d
000003f0: e62d 82be db42 a33c e0ae 2fbe ab2f 473e
0.044748276 -0.01763751 0.11375588 0.18605365 0.049618836 -0.2708969 -0.020958317 0.11871421
-0.10376482 0.11859587 0.13416283 0.12211437 0.1589596 0.21491167 -0.2314321 -0.00057231943
-0.09998996 0.107866384 0.19664861 -0.18510748 0.23862295 -0.105613194 0.14833172 -0.10518784
-0.0070542996 -0.25620878 -0.070908174 -0.17271858 -0.007181118 0.21867138 0.13885784 -0.08295873
0.019156579 -0.06060449 0.2576958 0.08431682 -0.09917724 -0.16115515 -0.034230016 0.056641873
-0.035415754 -0.16218115 0.21326227 0.1999436 0.15833884 -0.030556383 -0.05496537 0.18342897
-0.13637917 -0.10658406 -0.23385085 0.22097659 0.0781868 0.23709421 0.033655506 -0.014142468
0.008487194 0.08017027 0.035313174 0.13519435 -0.012946391 -0.15511422 0.09437205 0.07453761
-0.20123918 0.09100759 -0.28314674 -0.22199976 -0.12754345 -0.1626164 0.1220205 0.22526677
-0.083937764 0.19550833 0.20519875 0.03469857 0.026935432 0.045383245 -0.04651277 0.17107195
-0.29225427 -0.22120489 0.08313638 0.21878675 0.2786575 -0.21034953 -0.12295319 0.24165483
0.20599067 0.20051664 -0.01460031 0.22168456 0.21245967 -0.105580606 0.022124318 -0.015394579
-0.038581252 0.038273733 0.16265926 0.21591406 0.07168546 0.03088038 0.17429835 0.115835294
-0.13241808 0.1348582 -0.22820978 0.12615228 -0.21842742 0.113948435 0.15094653 0.09581788
-0.065234005 -0.09852547 -0.029712917 0.14613093 0.28920168 0.35819888 0.18383412 -0.011453532
0.04211743 -0.18665944 -0.05953238 0.013647306 -0.26973045 0.16280437 -0.15001024 -0.12822673
0.16467634 0.0044425726 0.07281414 -0.24847981 0.09328284 -0.12285373 -0.22535233 -0.19316143
-0.117271096 -0.044978797 0.11551061 0.1662808 -0.10043355 0.07983976 0.24441986 -0.006533901
-0.16204679 -0.2302321 -0.2556608 -0.15880711 0.2230082 0.1944245 -0.024967417 -0.21558727
-0.17292576 -0.035911772 -0.10725709 -0.23059936 -0.16184586 0.025263939 -0.016414467 -0.18958834
0.07205202 0.14524114 -0.02304653 0.08924954 0.21186668 0.2922116 0.10314447 -0.23886546
-0.11742036 -0.21314283 -0.21088038 -0.23407213 -0.14627935 0.079913236 0.12762776 0.11183421
0.1531727 0.12106931 0.27525562 0.24108529 0.271787 0.09608667 -0.25382245 -0.19934517
0.21438077 0.11678962 -0.03166144 0.19532843 0.1686781 0.16886368 0.25129655 0.07906643
0.11433603 0.13367796 -0.21346477 -0.21954858 -0.18917383 -0.007932397 -0.33514577 -0.16337794
0.06678844 -0.30111274 0.10601223 -0.03243011 0.13013266 0.020647129 0.13522784 -0.19019572
0.15255338 -0.18600968 0.0923143 0.16787629 -0.23375684 0.21837129 -0.027409723 0.23402295
0.0725443 0.15420003 -0.14567491 0.15266655 0.13715819 -0.11137806 0.12501277 -0.024893174
-0.06820788 -0.17466125 -0.18439414 0.076763965 0.17711923 -0.08512767 0.22748217 -0.19110109
0.16781527 0.2719451 -0.10239663 -0.17138012 0.26247177 0.0011956927 0.17483489 -0.30454057
-0.030057348 -0.24547257 0.07909254 -0.021064736 0.05164897 -0.11421133 0.25560647 -0.15831004
-0.06829834 0.10037087 -0.096732154 0.03168825 -0.25425643 0.01992934 -0.17156553 0.19451778

edge_conv_block.edge_conv.nn.0.bias f4 [256]
00000000: 8486 513e 4baa 2f3e 283c 64be 5b8a 823d
00000010: 320d 98bd 04da 41be 52a9 64be b8d4 d63d
00000020: 72f0 02bd cf02 1cbe a047 60bd 86b7 543e
00000030: ab12 bcbd 6652 a73c f914 5bbd ac93 873b
00000040: 1b3e 27be 34ec c53d 6351 5f3d e20f 833e
00000050: 14a4 0fbe 6fce cbbc 1f5d 923d d100 513e
00000060: ce44 543e b77b 5abe 9533 2abe 81d3 d23d
00000070: a948 c7bd 0432 6f3d 3571 0a3d 54ec 643e
00000080: 4629 f83d 610c 193e 0f62 e53d 11a7 cb3c
00000090: 76f6 21be ac90 e33d 28f6 9b3d 2bba f93c
000000a0: 2ea9 253e f314 373c 3b89 1e3e 75da fcbc
000000b0: 0edd 50be 4955 693e 60c5 043e 22c8 7d3d
000000c0: e51d 303e d9c0 bbbd 42d2 f1bd d48e a43d
000000d0: 05f9 13bd 2014 88be a95c 00bd c6d0 7cbe
000000e0: 11f6 833d e22b e9bb 3bba 683e 0646 333c
000000f0: dda4 4a3d 588a 99bd 8912 553e ca8c 613b
00000100: 13fa c23c d6f1 b0bd d6fb 2cbe b1bb 473d
00000110: ce0b 653d 1206 84bd 196b 6bbe 1b67 323e
00000120: 175e 643e fe40 6cbe bd71 c13d 8211 24be
00000130: a46b 393e 176b 593e abd4 333d 8f3a f53d
00000140: 3a63 99bd 43a8 37be 347d 23bd 701a 08be
00000150: 87ea 0cbe b722 a13d 3665 5b3d 74e6 6c3e
00000160: 5891 88be a650 c03d 61cc 1c3e 3aa5 05be
00000170: 34fb 62be c93a 813e 0963 20be ee76 813d
00000180: 6388 1bbe 214e 603e 8304 613e d2ab 0e3e
00000190: b232 4f3e c84b 29bd 6bb8 bfbd 5ed8 463e
000001a0: 010d 883e 0e8b 84be 46fc f4bd 8880 b8bd
000001b0: 7736 61be d594 613e 97b4 59be f391 e93d
000001c0: 4307 48bd 1bbd 0b3e ca38 05bd 1dd5 75be
000001d0: 0f71 213e d991 74bd 0244 0d3e f453 11be
000001e0: af0b 853d 50c5 84be 185a 92bd fb1e f13d
000001f0: 1fbb 7bbe 8684 61be 54ca 62be fd9b 423e
00000200: 1cbb 743e 46c7 833d 448d f6bd 17c3 5d3d
00000210: b9c6 73be 697b 29bd cb82 d3bb 1102 043e
00000220: 9108 183e 5f80 f0bd f3cd 9a3d b3f3 e6bd
00000230: 0eb6 853e 5ecb aebb c5ee 65be 878f dc3d
00000240: d1fb 53be e3a8 52be e0fa 1f3e 196c 01be
00000250: cdfd 353e 065a 18be a460 9ebd 9067 87be
00000260: d6f2 e93d 1f99 da3c d5b8 b63d f874 833c
00000270: f23f 83bb 1195 3b3e 728e 563e 9b92 b83d
00000280: 2889 7ebe b617 ab3d f897 00be 1b28 88be
00000290: e396 dc3d af08 e63c e455 87be 3d3c 56be
000002a0: 1f97 3b3e 2b4e 36be 6978 a03d ebaa 253c
000002b0: d76d c6bd 8e5e 25be 3804 c6bd a0ed 33be
000002c0: 46ee 6e3e 9fba 42bd a0af ee3d 186f c33d
000002d0: 6668 ef3d 0e8c c8bd 7a7b 81be 49b6 a93d
000002e0: 447d ac3d 93ae 37be 15f4 25be 8530 72be
000002f0: 06fb 843e ade5 4c3e 7968 d8bd a895 02be
00000300: fa9d 07be 5700 b4bd 77b2 5b3e 5ee6 54be
00000310: 0c86 44be e053 933d a158 63bd 409a 533e
00000320: 70bc b93d f4f4 8dbd caa7 5e3e 72bf fdbd
00000330: f215 b0bd b20c c53c 1330 603e b5d1 b33d
00000340: 709b 08be f876 59be 1231 e2bd b1fc 863e
00000350: 0794 3a3c f40a 573d 4eb6 d9bd 48b6 3b3e
00000360: bb2a 09be 1f56 153e 7d7e 40be f970 0e3e
00000370: 7026 d7bd 2491 0d3e 62ca 383e ef68 d63c
00000380: 7219 a03d 0ff2 86be c94e 233d 7e97 763e
00000390: f6c9 53bc bc93 f8bd 7d4d 3ebe 7f39 d33d
000003a0: a09a 773e e9cb 70be c72e 343e b9a9 15bd
000003b0: ec0b 353e a7ae eebd 85b2 68be 6688 45be
000003c0: cea6 76bc 9006 c7bc 9246 89bd a428 613e
000003d0: 4342 4fbe 0bce 23be 2e59 423b 2b7a bbbd
000003e0: 8ab6 c8bd 9d9f a1bd 476e 853e cd76 693e
000003f0: e02b 88bc fa41 bc3d 10ce 483e 5b8b 17be
0.2046147 0.17154805 -0.22288573 0.063740455 -0.07424392 -0.18930823 -0.22330216 0.10489792
-0.031967588 -0.15235446 -0.054755807 0.20773134 -0.09183248 0.020425033 -0.053486798 0.004137477
-0.16332285 0.09664193 0.054520976 0.25598055 -0.14027435 -0.024878709 0.07146668 0.20410468
0.20729372 -0.21336256 -0.1662124 0.102942474 -0.09730656 0.058397308 0.03379937 0.22355777
0.12117247 0.14946128 0.11200344 0.024859937 -0.15816674 0.11111578 0.0761531 0.03048428
0.16177818 0.011174428 0.15482037 -0.030865887 -0.20396826 0.2278644 0.12965918 0.06195844
0.17198904 -0.09167642 -0.118076816 0.08035055 -0.036126155 -0.26577854 -0.031338368 -0.24689016
0.06443418 -0.007115827 0.22727291 0.010941988 0.049473632 -0.0749709 0.20807852 0.0034416192
0.023800885 -0.086398765 -0.16892943 0.04876298 0.05591946 -0.0644647 -0.22990073 0.17422144
0.22301517 -0.23071668 0.09445522 -0.16022304 0.18107468 0.21232258 0.043903988 0.1197406
-0.07489629 -0.1793528 -0.039914325 -0.13291335 -0.1376134 0.078679495 0.05356332 0.23134786
-0.26673388 0.093903825 0.1531234 -0.1305131 -0.22166139 0.25240162 -0.15662779 0.06321512
-0.15188746 0.21904804 0.21974377 0.13932732 0.20234182 -0.041332036 -0.09361347 0.19418475
0.2657242 -0.2588734 -0.1196218 -0.090088904 -0.21993433 0.22029431 -0.21260296 0.11404791
-0.04883505 0.13646357 -0.03252486 -0.24007078 0.15765785 -0.059709404 0.13795474 -0.14192182
0.06496369 -0.25931787 -0.0714609 0.11773487 -0.245831 -0.2202321 -0.22147495 0.19004817
0.23899502 0.06434493 -0.12038663 0.05414113 -0.23806275 -0.04137746 -0.0064548007 0.12891413
0.14847018 -0.11743235 0.07558813 -0.11276951 0.2611546 -0.005334302 -0.22454365 0.10769563
-0.20701529 -0.20572238 0.15623045 -0.12638892 0.17772599 -0.14878091 -0.077332765 -0.264462
0.114232704 0.026684342 0.08921973 0.016046986 -0.0040054256 0.18318583 0.20952776 0.09012338
-0.24857008 0.08354132 -0.12557971 -0.26593098 0.10770967 0.028080313 -0.26432717 -0.20921417
0.18319367 -0.17803256 0.078354664 0.010111551 -0.09688919 -0.16149351 -0.096687734 -0.17571115
0.23333082 -0.047541257 0.116545916 0.09542674 0.11689834 -0.09792338 -0.25289518 0.08286721
0.0842233 -0.17937689 -0.16206391 -0.23651321 0.25972766 0.2000949 -0.105668016 -0.12752402
-0.13243857 -0.08789127 0.21454798 -0.20791003 -0.1919176 0.07193732 -0.055504445 0.2066431
0.09069145 -0.06931487 0.21743694 -0.12390031 -0.08597936 0.024053905 0.21893339 0.08780233
-0.13340545 -0.21236789 -0.11044516 0.26364663 0.0113878315 0.05250068 -0.10630475 0.18331254
-0.13395207 0.14583634 -0.18798251 0.13910283 -0.10505378 0.13824898 0.18045953 0.026173083
0.07817353 -0.2635655 0.039870057 0.24081227 -0.012926569 -0.12137553 -0.18584247 0.10313701
0.24180079 -0.23515286 0.17595969 -0.036538813 0.17680329 -0.11654406 -0.2272435 -0.19290313
-0.015054418 -0.024295121 -0.06702913 0.2198816 -0.2024012 -0.15996568 0.0029655206 -0.09154161
-0.098004416 -0.07891772 0.26060697 0.22799225 -0.016622484 0.091922715 0.19609857 -0.14799254

edge_conv_block.edge_conv.nn.1.weight f4 [256]
00000000: cfc8 7c3f 50f2 753f 7007 7a3f 0b4a 813f
00000010: 0ca1 7c3f dde2 7c3f 1e7d 803f db04 7e3f
00000020: ec20 813f 3142 7b3f 289e 7c3f 845e 7d3f
00000030: 1330 823f fd5f 7a3f 5827 793f 88b2 7a3f
00000040: a448 743f 53a3 833f 054b 7c3f b4de 7b3f
00000050: 1be5 813f 561f 7c3f b7ce 7e3f cf0e 7d3f
00000060: 00e5 7d3f f023 783f f940 7f3f bf8a 7b3f
00000070: 93be 813f d6da 7f3f ac81 7e3f b763 7b3f
00000080: 7366 7d3f 05af 883f a02f 853f 20a4 823f
00000090: 76c7 7d3f c456 7e3f a4dc 7c3f cd2f 7c3f
000000a0: d1fc 7c3f 1040 803f eaa1 7e3f 7d8a 853f
000000b0: 3013 7c3f bf2d 893f 681a 7f3f d3f5 783f
000000c0: 2250 803f d6e6 823f 67fc 783f 1f71 7f3f
000000d0: f97a 793f ba40 823f 5340 803f ab35 8a3f
000000e0: a12c 7f3f e782 7b3f 7fee 773f 023f 7a3f
000000f0: e397 763f 6349 783f 1224 863f ed40 823f
00000100: 682e 8b3f 4c6a 7f3f 0243 7f3f d20a 7e3f
00000110: ba7a 7d3f 5f19 7d3f a10f 7d3f d910 793f
00000120: 7272 803f f7f2 793f 0ebc 783f 955c 813f
00000130: 2264 7d3f 345f 7a3f 344a 843f 3af6 823f
00000140: a07a 7c3f e410 7e3f 51b3 7c3f 89d9 8a3f
00000150: 8864 7a3f 40ad 773f 97f6 7c3f 6c06 813f
00000160: 88e8 813f 8445 833f a807 7d3f 9d42 853f
00000170: 93d1 803f 3d24 7d3f 0069 7e3f 706d 783f
00000180: c582 793f fb2e 7e3f 882c 7e3f c5fc 853f
00000190: f090 823f 218d 803f f719 843f 1b34 803f
000001a0: 6b95 843f 3739 773f c541 7b3f 4cfc 7b3f
000001b0: c38a 7f3f 326d 7a3f 6beb 7b3f f534 7f3f
000001c0: a6c8 7a3f f0bf 7e3f 64a7 7d3f 512d 7c3f
000001d0: 7a32 7e3f da71 7a3f c11f 7d3f 5ec5 7f3f
000001e0: 736e 813f bf75 7a3f 3eb3 773f 4e6a 7b3f
000001f0: 53f1 7b3f 9357 803f 14e5 783f 77c5 7d3f
00000200: c48a 813f 4786 7b3f c544 7a3f 2102 7c3f
00000210: df3b 823f 74f5 803f 4253 7c3f e26d 813f
00000220: c5e1 7f3f c93b 7f3f 84e8 793f de44 803f
00000230: 7469 803f 2d0b 7d3f 1932 813f c166 7e3f
00000240: 4ae4 803f c4da 7d3f b43c 813f 1393 853f
00000250: 683b 7a3f 3e2c 7c3f 888b 7d3f 48ca 7c3f
00000260: fc17 7f3f c8b0 813f db7e 823f b1be 843f
00000270: abe4 7c3f 57e8 813f f395 753f 7364 803f
00000280: a3f3 813f 7508 793f e662 7c3f 5a4d 7b3f
00000290: 5f90 7d3f e188 803f 7ca2 7c3f ae9a 7c3f
000002a0: ed62 7c3f e625 853f a1ac 7c3f a828 7d3f
000002b0: 9692 7d3f 8ede 7a3f 74ad 783f 1197 7d3f
000002c0: 9267 803f 302d 773f 7e49 783f eadb 763f
000002d0: 860f 7d3f 5c3c 7e3f 64a3 8b3f 944b 813f
000002e0: 29f9 7d3f 1890 7e3f 755d 7f3f 0074 803f
000002f0: 654f 7b3f b360 783f c41e 7f3f 408a 803f
00000300: 10a2 843f b7fa 7b3f f112 7d3f 1cf6 803f
00000310: 48a4 7a3f 80de 7d3f bbab 7b3f 13b1 7d3f
00000320: 2b02 7b3f ed83 813f e587 7c3f 69d4 7e3f
00000330: e3fa 793f 13c5 7e3f 5be2 7a3f ddc0 783f
00000340: c9d2 7e3f cba9 7e3f 03e9 7f3f f138 813f
00000350: 1872 7c3f f988 7f3f 7976 793f fd94 7e3f
00000360: 0701 7f3f a92f 7d3f 55fe 803f fc0e 763f
00000370: b80c 7f3f 5b48 7f3f 067a 793f 1cb6 7c3f
00000380: 3a6b 773f dc67 7b3f 1bbd 803f 40e2 7d3f
00000390: 8e04 7b3f 2ad1 7f3f dd6e 773f c691 813f
000003a0: 0020 803f 6316 7d3f 934c 793f 4fcb 823f
000003b0: bed1 7a3f dcdb 7f3f d6ea 813f 93e7 833f
000003c0: 9e8f 7d3f 6475 7e3f 0b1b 803f d36b 7a3f
000003d0: 3d1f 7c3f f9bf 7d3f efd3 7a3f f9e7 783f
000003e0: cbed 773f c88e 793f 64e9 813f 7919 833f
000003f0: 24c2 7a3f f678 7f3f 8cb5 7d3f 5e54 7d3f
0.9874391 0.96072865 0.976676 1.0100721 0.9868324 0.98783666 1.0038183 0.9922616
1.0088172 0.98147875 0.9867883 0.98972344 1.0170921 0.97802716 0.9732566 0.9792867
0.9542334 1.0284218 0.9855197 0.98386693 1.0148042 0.98485315 0.9953417 0.9885072
0.9917755 0.96929836 0.99708515 0.98258585 1.0136284 0.9994329 0.99416614 0.9819903
0.9898445 1.0678412 1.0405159 1.0206337 0.9913248 0.99351144 0.9877417 0.9851044
0.9882327 1.001955 0.9946581 1.0432888 0.9846678 1.0717086 0.9964967 0.972501
1.0024455 1.0226696 0.97260135 0.99781984 0.97453266 1.0176003 1.001963 1.0797628
0.99677473 0.98246616 0.9684829 0.9775239 0.9632551 0.9698698 1.0479758 1.0176064
1.0873537 0.9977157 0.9971162 0.9923526 0.9901539 0.9886684 0.9885197 0.9729133
1.0034926 0.9763636 0.9716195 1.0106379 0.98980916 0.9780152 1.0335145 1.0231392
0.9862461 0.99244523 0.98711115 1.0847636 0.9780965 0.96748734 0.98813766 1.0080085
1.0149088 1.025559 0.9883981 1.0410954 1.0063957 0.9888342 0.9937897 0.9704199
0.97465163 0.99290437 0.992867 1.0467764 1.0200481 1.0043069 1.0320424 1.0015901
1.0358099 0.9657168 0.9814723 0.9843185 0.9982111 0.9782287 0.98406094 0.9969018
0.97962415 0.99511623 0.9908354 0.9850665 0.9929577 0.97829974 0.9887658 0.99910533
1.0111831 0.97835916 0.96757877 0.98209083 0.98415107 1.0026726 0.97224545 0.9912943
1.0120473 0.98251766 0.97761184 0.9844075 1.0174521 1.0074906 0.9856454 1.0111659
0.9995387 0.997006 0.97620416 1.0021017 1.0032182 0.9884518 1.0093414 0.9937554
1.0069668 0.99161935 1.009665 1.0435508 0.97746897 0.9850501 0.9904103 0.98746157
0.9964597 1.0132074 1.0194963 1.0370694 0.9878642 1.014903 0.9593193 1.0030655
1.0152477 0.9727853 0.9858841 0.98164904 0.9904842 1.0041772 0.9868543 0.9867352
0.9858845 1.0402191 0.9870091 0.9889016 0.990518 0.9799584 0.9713967 0.99058634
1.0031607 0.96553326 0.9698714 0.9642931 0.9885181 0.9931085 1.0909238 1.010119
0.99208313 0.9943862 0.9975198 1.00354 0.9816802 0.9702255 0.9965632 1.004219
1.0361958 0.98429435 0.9885703 1.0075107 0.97906923 0.99167633 0.98308915 0.9909832
0.98050183 1.0118386 0.9864486 0.9954286 0.9764845 0.9951946 0.9800164 0.97169286
0.9954038 0.99477834 0.9996492 1.0095502 0.98611593 0.9981838 0.974464 0.9944609
0.9961094 0.9890085 1.0077616 0.96116614 0.9962878 0.9971978 0.9745182 0.98715377
0.9664799 0.9820535 1.005771 0.99173355 0.98053825 0.99928534 0.9665354 1.0122612
1.0009766 0.98862284 0.9738247 1.0218295 0.9797629 0.99944854 1.0149791 1.0305046
0.9904727 0.99397874 1.0008253 0.97820777 0.98485166 0.9912105 0.97979635 0.9722896
0.9684722 0.9748349 1.014935 1.0242149 0.97952485 0.99793947 0.99105144 0.9895686

edge_conv_block.edge_conv.nn.1.bias f4 [256]
00000000: 0f1c 433d e759 06bb d0ab 8c3c 2f38 4c3c
00000010: 752f 81ba 2e79 6e3d c8b0 793c 22a7 a03c
00000020: 7bf6 89bd ae09 b6bc 522e af3c 48b5 9a3c
00000030: fa99 ebbc 57e1 7f3b b3fe 81bd 7ae8 e4bc
00000040: 443d 0fbc 1182 633d 734f acbc 168b 16bd
00000050: 357c e63c 3380 ed3b e855 d73c f27e 0ebd
00000060: 6778 873b 5cde b83c e538 573d de50 2cbd
00000070: e9d9 82bd 3d88 aebd d3c3 fb3b 69ae 6abd
00000080: 9a0c b5bc faa4 4c3d caaf a93c c401 91bd
00000090: 49c6 4bba bf5c 603d beb7 c93b 5b51 69bd
000000a0: 9328 3e3b 1031 8ebc 79ae 133c 8806 183d
000000b0: 781c 1d3d 4dbd a0bd 0b2f 943b 3a92 853d
000000c0: 70d1 44bd 3757 d3bc 3036 34bc 272e ea3c
000000d0: 1494 30b9 7328 1d3d ce5e 653c 3c40 8ebd
000000e0: cdb8 9f3c 046b 753d 9cc0 b3bb b78d e1bc
000000f0: 61c3 dabc 7d31 d63c 60be 9b3c 0e41 12ba
00000100: 803e 89bd 0cdd 8d3b e756 0cbd 1c28 173c
00000110: 2a79 fe3c 6d48 3a3d 68bf 4c3b 372d 4a3c
00000120: 6f7e 48bc 611c 81bc fc54 b13c 0c1f 8839
00000130: 1847 1dbd aeff ddbc 7515 acbd b64b d6bc
00000140: f040 94bc 80ed eabc 6635 6bbc e082 9abd
00000150: ab63 2b3c b11c e9bb 26ea 92bd 3f21 93bd
00000160: 0056 f839 7c6a 333c 0009 f73c ed1d c53c
00000170: 5067 84b7 27ff c1bb d855 14bb 47c3 babc
00000180: 7a3b 06bb e1dd 173d 8025 6b3d d717 203d
00000190: af73 883d 204a a73d 4824 83bc 6e1f 46bd
000001a0: b866 293d c153 7b3c 7e7e d4bc 7a09 d13c
000001b0: aa4c 6a3d eca6 40bd 1b18 033d e62e d0bc
000001c0: f713 223d 7a84 98bc 45de 22bc 8baf 18bd
000001d0: 4c4f 2abc 1c46 01bd 47f0 6cbc 4d0d 7b3c
000001e0: 987d 423d b1fc 2ebd cf7f 5cbd e9b5 f6bc
000001f0: 3ba7 dc3c e8a2 833d ba53 d9bc 6c49 833c
00000200: f8e9 183d cbc5 76bd b933 96bb b568 a8bb
00000210: 5900 10bd 1a2c dc3c 2e2b 313c 90d6 ef3c
00000220: 3718 b23d 2c0f 8f3c 36af 08bd 3098 323b
00000230: 4429 29bd 5ccb d73c cb27 1b3b ce24 413c
00000240: ffa9 d7bc d2a8 2fbd dafd ed3c 273d dd3c
00000250: 3ab5 38bd 2e9f ea3c 5e53 21bd 3f36 aebc
00000260: 145b c4bc e179 7fbc 3f13 88bd d716 713c
00000270: ad24 29bc ee1b 8bbd 9960 d23c b731 85bc
00000280: e173 0a3d c9e6 513b bc1d 003c 7093 973d
00000290: 80b9 1abd 6192 733c 0f6d 09bc bf0c d13b
000002a0: 629a 663c 5042 6c3c da36 0b3d cb0c a1bd
000002b0: 4159 183d fcf3 4cbc 5efa b53b f0b7 f43c
000002c0: 94b8 5dbd 20a8 26bd 780b 25bd 7906 953b
000002d0: 3ffb 11bd 1012 00bd ee39 9f3b 21ed c9bb
000002e0: 81b3 77bb f543 c0bc 8410 03bb c7f6 4e3c
000002f0: 92b2 c53c 68af a1bc 383f 0a3c ecde 30bc
00000300: 0414 8e3d be2b d53b 805a 873b 1c80 ffbc
00000310: 9f12 423d b903 383d e574 25bd 21e5 8a3d
00000320: 0e75 a2bc 2d50 89bd 3f5e 353d 0b2c 5b3c
00000330: 98e0 d5bc 61c4 5dbc 6c8e 31bd 921b 0cbd
00000340: 331f 8a3d 82cf 7fbc d34c 59bc 7e46 91bc
00000350: 4769 8f3b c11a 873d aa0e 82bd 82f8 3139
00000360: b9a7 9e3b 6ace fdbc 9f40 64bb f780 c93c
00000370: d8b9 16bd 94bc 263d c978 1cbc 3b18 debc
00000380: e395 07ba 2126 ad3c 6104 563d 36d7 1cbd
00000390: cc6b 21bc ef04 4cbd 88ad d5bc 81b4 2c3b
000003a0: 2ecf acbb a639 343a 81de 2f3b 3cd9 10bc
000003b0: 8263 c2bc 9718 9c3c 3c8c db3b 4f77 973d
000003c0: 0765 ea3c d60a 96bc bc7e 313d 6b02 11bd
000003d0: a841 273d ebd2 ad3c ffda e2bc 3602 403d
000003e0: ec0f 4d3c 6eb9 09bc 2748 f83c 993a 44bc
000003f0: 10ec c73b c2a8 debb ecdb b0bc c830 2c3c
0.04763418 -0.0020500363 0.01717177 0.012464567 -0.0009856062 0.058221035 0.015239902 0.019610945
-0.067364655 -0.022221413 0.021384392 0.01888527 -0.028759945 0.0039044225 -0.06347408 -0.027942885
-0.008742634 0.055543963 -0.021033978 -0.036753736 0.028135398 0.0072479486 0.02628608 -0.034789033
0.004134226 0.022566967 0.052544493 -0.04206931 -0.06389219 -0.08522079 0.007683256 -0.057295237
-0.022100735 0.04996202 0.020713706 -0.07080415 -0.0007773382 0.05477595 0.006155937 -0.056962352
0.0029015883 -0.01735738 0.0090137655 0.037115604 0.038357228 -0.07848606 0.0045222095 0.06522031
-0.048051298 -0.025798423 -0.010999247 0.02858646 -0.00016839831 0.038368654 0.013999654 -0.069458455
0.0194973 0.05991651 -0.0054856073 -0.027533395 -0.026704492 0.026146645 0.019011676 -0.0005579152
-0.06701374 0.0043293294 -0.034262564 0.009225871 0.031063635 0.045479227 0.0031242017 0.012339882
-0.012237175 -0.015760602 0.021646969 0.00025963073 -0.03839788 -0.027099457 -0.0840253 -0.026159149
-0.01809737 -0.028677702 -0.014355993 -0.07544494 0.010460774 -0.007114016 -0.071735665 -0.071840756
0.0004736632 0.010950681 0.030155659 0.024062121 -1.5783735e-05 -0.005920309 -0.0022634175 -0.022798194
-0.0020482228 0.037076835 0.05740881 0.039085235 0.0666269 0.08168435 -0.016008511 -0.048369817
0.041357726 0.015339793 -0.025939222 0.025517214 0.05720202 -0.04703419 0.03200541 -0.025412988
0.03956982 -0.018617857 -0.0099406885 -0.037276786 -0.010394882 -0.031561002 -0.014461583 0.015322995
0.047483057 -0.042721454 -0.053832825 -0.030116038 0.02693521 0.06427556 -0.026529182 0.016026221
0.037332505 -0.060247224 -0.0045838025 -0.005139435 -0.03515658 0.026876498 0.0108135175 0.029277116
0.08696025 0.01746329 -0.03337022 0.0027251355 -0.04129912 0.026342086 0.0023674842 0.01178856
-0.026326178 -0.04288561 0.02905171 0.027006699 -0.045094706 0.028640356 -0.039386146 -0.0212661
-0.02396921 -0.015593023 -0.06644296 0.014714918 -0.010323686 -0.067924365 0.025680827 -0.016259057
0.033801917 0.0032028428 0.007819589 0.07401168 -0.037774563 0.014866442 -0.008387818 0.0063796933
0.014074894 0.014420107 0.033987857 -0.07863768 0.037194494 -0.012509342 0.0055535277 0.029872864
-0.054131106 -0.04068768 -0.04029414 0.0045478907 -0.035639998 -0.031267226 0.0048592007 -0.006162301
-0.0037796202 -0.023469904 -0.0019998858 0.0126320785 0.024133 -0.01973696 0.008437924 -0.010795336
0.069374114 0.0065054586 0.0041306615 -0.031189017 0.04738104 0.044925425 -0.040394682 0.06781984
-0.019831207 -0.067047454 0.044279333 0.0133772 -0.026108071 -0.01353559 -0.043348715 -0.03420598
0.06744232 -0.015613439 -0.013262945 -0.017733809 0.0043765637 0.065969 -0.06350453 0.00016972612
0.0048417714 -0.030982215 -0.0034828556 0.024597628 -0.03679833 0.040707186 -0.009550282 -0.027111163
-0.0005172176 0.021136345 0.05225027 -0.03829118 -0.009852361 -0.049809393 -0.026083723 0.0026352706
-0.005273721 0.00068750454 0.0026835504 -0.008840855 -0.02372909 0.019054694 0.006700067 0.07395803
0.028612627 -0.018315714 0.043333754 -0.035402697 0.0408341 0.021218738 -0.027692316 0.04687711
0.012516003 -0.008406026 0.030307842 -0.011976861 0.006101139 -0.00679502 -0.021589242 0.010509677

edge_conv_block.edge_conv.nn.1.running_mean f4 [256]
00000000: cf1d 22c0 e48a c740 aed2 ad40 46cf 4ac0
00000010: 3c2c e33f 1e27 2fbf bd45 48bf e1b1 37c0
00000020: db9e 8640 c027 083f ac8d bfc0 4f33 2f40
00000030: 3ebf 4640 49d5 9540 76d8 7a40 51f6 df3f
00000040: b3cd 9840 a202 9f3f 6861 a740 656a 12c0
00000050: 0cb6 58c0 7deb b13f fa66 52c0 02dc d340
00000060: 2a44 7fc0 4eb8 0940 a1c1 e23f 17da aabb
00000070: 5064 33c0 f028 e1bf 2335 bdc0 338f 2cc0
00000080: 2134 8b40 cbf6 7bc0 12fb a4bf 587c 0a40
00000090: 24b4 5dc0 f2bd a3c0 d65a 4cc0 b553 1f40
000000a0: 6d2e 37c0 8541 e03f 4d16 7640 d1eb 90bf
000000b0: c67c 84c0 82c3 1cbd c0a1 f7be 3d5e 11c0
000000c0: b238 db3e ab03 4abe 506e 2ec0 c2cf 753f
000000d0: fc51 1040 3800 c43e bde8 22c0 73f2 34bf
000000e0: 4f46 fdbf 8604 8440 99ac 2d40 4b01 c140
000000f0: 24b7 b13e c2fe 57c0 0be1 24bf 2ed7 8340
00000100: fe94 5abd 48f2 28c0 d77a 4440 07f1 e33f
00000110: 9e75 4ec0 9a5f f83f 7b2a a1c0 771b 1040
00000120: 6305 803f 1aee 00bf 4f5e a3c0 3e58 2bc0
00000130: 8472 77c0 5c6c 7340 ddea 1b40 fd26 5340
00000140: 2a12 9d40 1afb 413f d9e7 1c40 9d33 fbbe
00000150: 72b4 56c0 7621 8840 1a74 ed3f 8383 5740
00000160: 6c0a 26c0 5278 e5bf b9a4 b2c0 a617 0dc0
00000170: f0d1 12c0 d294 9240 67fd 8fc0 7b42 8240
00000180: 4dbc 95c0 f0e5 a5c0 e729 6cc0 b4e9 6dc0
00000190: a82a 66bf d132 0fc0 78b4 0740 a48d e83f
000001a0: 8ad7 45c0 e88c 90c0 71aa 7d3f 4a20 27c0
000001b0: 84a3 5cc0 7dc8 e73f 38e4 83c0 ddd1 7cbf
000001c0: 0259 82c0 ebcd 0d40 6970 8040 bea7 cb40
000001d0: 40e2 9040 cc38 3640 9185 653f 0a3a 8440
000001e0: c67d a9bf 743b e33f 0b54 813f 17dc 34c0
000001f0: 046e 3b40 d3eb b9c0 08e2 85c0 6ecd 8dc0
00000200: f0d0 e9bf ad3d e1bf 00e5 fcc0 e27b 4dc0
00000210: 53e5 7d3f 4adc b8c0 9f44 8ac0 8887 bd3e
00000220: cbe8 99c0 6ac8 0dc0 4066 8b40 55d1 d43f
00000230: 85b2 a9bf 6dc9 4dc0 111e 98c0 6ea4 4740
00000240: b084 9bbe 9e87 5040 90e4 31c0 50c8 50be
00000250: de72 3540 3a58 94c0 4e1b 90bf bc94 3740
00000260: dfac 33c0 e416 7bbf df38 bcbd 4d4c 1040
00000270: 6574 ad3f 0d41 d3bf 7cc2 173f 3dda 4540
00000280: c1b4 8ebf ee57 36c0 afc9 6fc0 753e 68c0
00000290: 549a 303f 9056 8dc0 746a 443f 39a8 9dc0
000002a0: ee27 b140 1e5f c6bf 824d bbbf 0a20 5240
000002b0: 7d7b a2c0 a098 5640 bd7b 6fc0 bb86 3a3f
000002c0: 721e 9e40 a029 9240 5da9 dc40 3230 07bf
000002d0: 6c79 2540 c8eb 04c0 d102 e03f f1dd b1bf
000002e0: 180a 96bf ecc8 7440 8819 4cbf 96ed 19c0
000002f0: b9fd a540 01d7 5d40 d1ac b340 8c40 45c0
00000300: 7016 a3be edf9 48bf 63b1 513e 4c5e 5140
00000310: e035 c0c0 b1e9 94c0 0858 a7bf d124 f0bf
00000320: 1695 c3c0 c6d7 7440 159f 47c0 2d30 04c0
00000330: 2e18 0cc0 5a7f 49c0 5cc4 083e 33d0 633f
00000340: 0c80 45c0 5881 2b40 91eb edbf c313 a63e
00000350: 158e 1740 84dc 72c0 1ac2 1340 100b 1240
00000360: 6391 13c0 d013 0f40 e39b e2bf 55da 57c0
00000370: c136 c540 6ff1 60c0 039c 9dbd 35ed 5340
00000380: 9c3e bbc0 cd05 9fc0 2add 0ac0 6fb6 5640
00000390: 228f d9bf af85 8f3f 4852 8ec0 698c 65bf
000003a0: 472f 1840 2c2b 3640 f73c 68bf 1256 e8bf
000003b0: 903b d33f 2180 1cbf 8b50 41c0 d1aa 35bf
000003c0: 6b75 79bd d008 17c0 6eb3 cdc0 a384 66c0
000003d0: 30d3 96c0 eaa7 9840 8e91 19c0 11b8 da3f
000003e0: 86d7 8a40 0c4f a340 deed aac0 6fe6 2440
000003f0: 8a0e 6abf 8271 723f 7e58 02c0 4fe4 f13f
-2.5330694 6.2357044 5.4319677 -3.168901 1.7747874 -0.68419063 -0.7823141 -2.8702319
4.2068915 0.53185654 -5.986044 2.7375066 3.1054225 4.682286 3.9194617 1.7497045
4.77511 1.2422678 5.2306404 -2.2877438 -3.3861113 1.389999 -3.2875352 6.6206064
-3.9885354 2.151874 1.7715341 -0.0052139866 -2.8029976 -1.7590618 -5.9127364 -2.6962402
4.3501134 -3.936938 -1.288912 2.1638393 -3.46412 -5.1169367 -3.1930442 2.489484
-2.8622086 1.7519995 3.8451111 -1.1321965 -4.140231 -0.03827239 -0.48365593 -2.2713768
0.42816693 -0.19727962 -2.725483 0.9602014 2.255004 0.38281417 -2.5454552 -0.7068245
-1.9787081 4.125552 2.7136595 6.031408 0.34710038 -3.3749242 -0.6440589 4.120017
-0.053364746 -2.6397877 3.0699975 1.7807931 -3.2259288 1.9404175 -5.0364356 2.2516763
1.0001644 -0.50363314 -5.1052623 -2.6772609 -3.8663645 3.8034887 2.43621 3.2992547
4.9084673 0.75773776 2.4516509 -0.49062815 -3.3547635 4.2540846 1.8551056 3.3674018
-2.594386 -1.7927344 -5.5826077 -2.2045684 -2.2940636 4.5806665 -4.499683 4.0706153
-4.679236 -5.1843185 -3.6900575 -3.717389 -0.8990884 -2.2374766 2.12039 1.8168225
-3.0912805 -4.5172005 0.990882 -2.6113458 -3.4474802 1.8108059 -4.1216087 -0.98757726
-4.073365 2.2156932 4.013722 6.3642263 4.5276184 2.8472166 0.8965693 4.132085
-1.3241508 1.7752519 1.0103773 -2.8259332 2.9285898 -5.810037 -4.1838417 -4.431327
-1.8266888 -1.7596947 -7.902954 -3.2106862 0.99178046 -5.7768908 -4.3208766 0.37017465
-4.809667 -2.2153573 4.3562317 1.6626383 -1.3257605 -3.215419 -4.75367 3.119411
-0.3037467 3.2582774 -2.7795753 -0.20388913 2.835136 -4.63577 -1.1258333 2.868453
-2.8074262 -0.98081803 -0.09190535 2.254657 1.3551146 -1.6504227 0.59281135 3.0914452
-1.1148912 -2.8491168 -3.7466848 -3.628812 0.68985486 -4.4168167 0.76724935 -4.926785
5.536124 -1.5497777 -1.4633029 3.2832055 -5.0775743 3.3530655 -3.7419274 0.7286183
4.9412165 4.567581 6.895674 -0.52807915 2.585536 -2.076891 1.750086 -1.3895856
-1.172183 3.8247633 -0.7972646 -2.405126 5.187222 3.4662478 5.6148458 -3.0820646
-0.31853056 -0.78506356 0.20477824 3.2713804 -6.0065765 -4.653527 -1.307374 -1.8761235
-6.111949 3.8256698 -3.1190846 -2.0654404 -2.1889758 -3.148398 0.13356155 0.8898956
-3.0859404 2.6797695 -1.8587514 0.32436952 2.368047 -3.7947092 2.308722 2.2819252
-2.3057487 2.2355843 -1.7703823 -3.372701 6.162934 -3.514736 -0.076957725 3.311353
-5.8513927 -4.969458 -2.1697488 3.3548849 -1.6996806 1.1212672 -4.447544 -0.89667374
2.3778856 2.846385 -0.90718025 -1.8151267 1.6502552 -0.6113301 -3.020541 -0.7096377
-0.060902994 -2.3599129 -6.428153 -3.6018455 -4.7132797 4.7704973 -2.399509 1.7087423
4.338809 5.1033993 -5.3415365 2.5765646 -0.91428435 0.9470445 -2.0366511 1.8897799

edge_conv_block.edge_conv.nn.1.running_var f4 [256]
00000000: 0498 2242 d5d6 fc42 7458 fd42 2b11 b541
00000010: f202 4d42 4c7f f241 12e6 7b40 eb1f 0f42
00000020: 5459 f340 82e3 0241 c2f5 0842 6438 a442
00000030: 76da 3a41 e4f2 0c43 1f30 8342 ab6b fc40
00000040: deca f141 85b1 4340 28b5 9542 e234 8941
00000050: 76c4 4541 9aef 9c41 2f0f f341 0e85 e342
00000060: f88c 8241 44eb 1a42 b6f9 6742 315f 2542
00000070: 0039 d840 60a2 7540 5be7 d641 6a7c b642
00000080: c901 2943 a4b5 8541 cfcd c140 3bce 8d40
00000090: 37aa 3142 f717 fa42 1b5d 9541 41e6 f240
000000a0: 26f7 df41 6d33 5c41 5b0d 5d42 2397 1441
000000b0: 32eb 1142 7a81 d940 1156 0142 b5cf 0042
000000c0: d7bd aa3f 7687 d33f 638a a541 91ef 3741
000000d0: efe8 b840 7953 8040 dc4c e840 4a35 9240
000000e0: d7b0 ef41 ee32 8242 bc76 a741 53a2 0543
000000f0: b215 0a42 cad6 d042 a09f 0b40 6e68 1d41
00000100: 8e1e 2840 a463 0542 603a 7742 6e43 f641
00000110: a2f4 1741 3de8 7142 b913 9242 c5af 9042
00000120: 8f9e cb3f 327e 7f41 14fd 6242 00b5 8a41
00000130: 5ae5 b742 3eca 0a41 653e 7c40 5409 8a41
00000140: ae7e 1342 4225 4341 d753 5842 ea7b e23f
00000150: 03d9 bd41 f854 6f42 d2c3 6642 4019 e540
00000160: 9a14 dc40 9894 6440 609d 1743 6e13 aa40
00000170: b16d 2040 6350 be42 2df5 bb41 8779 8241
00000180: 034a 3842 6986 c242 b14f 4842 3cad 2441
00000190: 678c 6240 e840 3c42 e3a9 6141 b192 c541
000001a0: 0db6 bd41 965c 2a42 4775 3541 ff76 9341
000001b0: 3440 0742 4f19 aa41 99de 0343 4918 9140
000001c0: b575 5642 812e d940 1d9f 9441 0b8e 1043
000001d0: 9464 5341 b272 0f41 c354 8842 feff 3042
000001e0: e22d a340 d9c0 cd41 f9fe 2941 9bab 4242
000001f0: 72ca 8842 2bca d542 3db8 1441 8ec4 9341
00000200: c248 da41 db12 2a41 e8f5 3b43 a30a 9f42
00000210: c1c6 5940 acd7 3f42 bb48 6841 9efd c340
00000220: 98ed e142 4123 8041 65e3 5c41 0737 4b42
00000230: f622 f140 2a30 2542 8b41 a441 97ea 1542
00000240: 0864 be40 4929 b342 ae4d 8541 5a42 8040
00000250: 1e16 1a42 6816 2842 f899 f040 66c6 5841
00000260: 5463 a041 f1b4 1640 d264 f740 2970 bb40
00000270: 798c 2241 87ad 9540 66f2 c141 88fb 3c42
00000280: 0e0c c540 f7d1 de41 6bd9 1342 5e8f 3042
00000290: 9b28 8e40 95c5 e841 ae33 cb41 38c8 9c42
000002a0: 7eeb a742 471a e73f 62c4 1242 2e76 5842
000002b0: 93c9 b842 8bbc 7f41 dc99 f942 54ec 6c41
000002c0: 2eaf 1842 72dc b141 c6b5 6b42 6a99 e641
000002d0: 4583 9341 62a9 7a42 24b4 b540 2f38 1741
000002e0: 294a 9c41 d235 0441 9d2a ff40 3cad 9741
000002f0: 4530 ab42 4334 5941 d8f7 9b41 9fde 7041
00000300: 4f34 0a41 01f3 3041 9776 ff41 36ed 9442
00000310: 83e5 6642 3ab2 9842 5fdf 7242 871a 3642
00000320: 27ee c241 c498 0a41 7203 8e42 7cfa c641
00000330: 7454 0d41 f368 fe40 32f8 a341 ac97 8741
00000340: e35d 9942 7bdf 2042 79a1 4d40 3c9a c73f
00000350: 65b7 8a42 8d63 6642 8570 8f42 9cf9 ed41
00000360: d34c 8d40 5fec da41 15f7 3c41 3949 1a42
00000370: 457b f942 5fe9 5442 00d8 2140 aba5 5f42
00000380: d0ad d942 ca99 d242 a6c5 2342 f0f5 f641
00000390: 009b 1341 e3db ce40 a2ab 6742 f52e bb41
000003a0: 18ad 5041 ed88 1242 e385 0f42 5f94 c840
000003b0: bffb ec41 740b 3541 911e 3841 1409 5740
000003c0: 9b29 8141 7795 5a42 c72b af42 54f3 2841
000003d0: b53f e342 0dbb f742 2ad1 9442 c5e1 a142
000003e0: 012e 4a41 e0bd 0743 83bb 0042 2508 9840
000003f0: 16b3 8341 071c 2f42 460e fe41 61e7 2242
40.648453 126.41959 126.67276 22.633383 51.252876 30.312157 3.9359174 35.78117
7.6046543 8.180544 34.239998 82.11014 11.678335 140.94879 65.59399 7.888143
30.224056 3.05771 74.85382 17.150822 12.360464 19.616993 30.382414 113.75987
16.318832 38.72975 57.99386 41.34296 6.756958 3.8380356 26.862967 91.243
169.00697 16.713692 6.056373 4.4314246 44.416225 125.04681 18.670462 7.590607
27.995678 13.762555 55.263042 9.286899 36.479683 6.7970552 32.33405 32.20284
1.3339185 1.6525714 20.692572 11.495988 5.7784343 4.0101895 7.2593822 4.569005
29.961348 65.09947 20.932976 133.63408 34.521187 104.41951 2.1816177 9.837996
2.626865 33.347305 61.807007 30.782925 9.497225 60.476795 73.03852 72.3433
1.5907763 15.968309 56.747147 17.338379 91.94795 8.674376 3.9413083 17.254555
36.87371 12.196596 54.081875 1.7694066 23.730963 59.832977 57.69123 7.1593323
6.877515 3.5715694 151.61475 5.314872 2.506695 95.157005 23.494715 16.30934
46.072277 97.26252 50.077824 10.292294 3.5398195 47.063385 14.103976 24.696627
23.713892 42.590416 11.341132 18.433104 33.8127 21.262358 131.86952 4.5342145
53.61495 6.7869267 18.577692 144.55486 13.212055 8.965502 68.16555 44.249992
5.099351 25.719164 10.624749 48.667583 68.3954 106.89486 9.29498 18.470974
27.285526 10.629603 187.96057 79.520775 3.402756 47.960617 14.517756 6.124709
112.96405 16.017214 13.805516 50.803738 7.5355177 41.297035 20.532003 37.47909
5.949711 89.580635 16.66293 4.0080996 38.5216 42.02188 7.518795 13.548437
20.0485 2.3547938 7.731057 5.8574414 10.159295 4.6774325 24.243359 47.245636
6.1577215 27.852522 36.962322 44.140007 4.4424567 29.096476 25.400234 78.39105
83.959946 1.8054894 36.69178 54.11541 92.3937 15.983531 124.80051 14.807697
38.171074 22.23264 58.927513 28.82491 18.439096 62.665413 5.67824 9.451217
19.536211 8.26314 7.973952 18.959587 85.59428 13.575259 19.496017 15.054351
8.637771 11.059327 31.932905 74.4633 57.724133 76.3481 60.718136 45.525906
24.366285 8.662296 71.00673 24.872307 8.833118 7.950311 20.49619 16.949059
76.68337 40.218243 3.2129805 1.5593944 69.35819 57.597218 71.719765 29.74688
4.415628 27.365416 11.810323 38.571507 124.74076 53.2279 2.5288086 55.911785
108.83948 105.30037 40.943016 30.870087 9.225342 6.4643416 57.91761 23.397928
13.042259 36.633717 35.88075 6.2681117 29.622923 11.315296 11.5074625 3.359929
16.145315 54.64596 87.5855 10.559406 113.62443 123.86533 74.40852 80.940956
12.636231 135.7417 32.183117 4.750994 16.462444 43.77737 31.75697 40.725956

edge_conv_block.edge_conv.nn.3.weight f4 [256, 256]
00000000: 42b4 3ebd 6491 40bc 710d 40bd e186 f9bc
00000010: e4f6 65bd 3532 10bc bab2 2a3d 377f 5f3d
00000020: d9f4 9e3c 3403 9cbc 9a9d e3bc 0593 00bd
00000030: 3851 dabc 0943 69bb 09bf 97bc c89a 213c
00000040: 8842 003c 1f02 a8bc ca1e 4bbd 78d1 013d
00000050: 8953 a23c 7479 a03c 1a2c 913d 2f9f 8ebd
00000060: 2748 fabc 2a78 98bb 8be5 febc f844 d53c
00000070: ac75 49bd f9c6 603b a8cb fdbb b345 dbbc
00000080: b229 23bd 4a2b 943d 10e2 34bc d7a4 08bc
00000090: e49a 7dbd fc9c 123d 3f35 87bc 9978 d0bc
000000a0: ad2a 6abd 49bc 99bd 83d7 073d e8c9 a9bd
000000b0: 03c2 8d3c 785f 7a3d 2137 c83c fd16 0dbd
000000c0: 003f 2a3d 2b36 293d d740 083c 0cd6 89bd
000000d0: b41d 533c dd2a 443d 2f0e 3e3d b390 363d
000000e0: d912 413d 600d 5f3d 7a79 33bd 471b f6bc
000000f0: 31e7 31b9 762f 4d3d 1a6d a8bd 1915 4abd
00000100: 9295 693d 0fc2 b2bc 8f1d 253c bdbb 73bd
00000110: 9439 9abd 1606 173d 7477 fc3c 3424 67bd
00000120: 0f4b 7ebd a65c 32bd a0a6 c6bc bd1e 3fbd
00000130: 60b1 afbc 308b f5bc 070c 46bd e73e d83c
00000140: ac77 133d 02c9 3abb 5f3d dcbb 851f bbbd
00000150: 0848 533c dce3 3f3d e2c9 77bd 75bb 3fbd
00000160: b964 04bd 448b d4bb 994d 873c 0d73 483d
00000170: e409 1c3d 9026 ad3c ef01 483d 1e83 4ebd
00000180: 0f86 3ebd c34d cebc 5069 583d 682c 92bd
00000190: c81b f13b 1732 dfba 7bac 5a3d 73a5 a3bd
000001a0: 3bb7 8cbb c5dd 34bc 829e 3f3d c9ba 823d
000001b0: ace1 1d3d 6bb0 623d 636d 4cbd 3f02 a23c
000001c0: 8e8d b3bc f3b9 cabc 95b8 393d adc7 d73b
000001d0: 2c5a 253d d909 cc3c 3c36 9d3c d4c9 2cbd
000001e0: 35ef 653b d744 7e3c e751 9c3c 7a0f 143c
000001f0: d25b f23c f51b 403c 7925 d1bc 7a4d 193c
00000200: c80d 04bd 0222 f9bc 0a79 a53c 1e5c 90bc
00000210: 50bf bd3c cbeb aa3c 010c 673b 8f1a babc
00000220: e9f2 c5bc a59a 91bd 103f 6cbb 0805 b13c
00000230: 3fa8 d73c 0ba0 8e3d 18ac 9bbc 11bb 353c
00000240: e4b3 6b3b 5aaa f13c 8cd7 823c d95c d2bc
00000250: d1a8 8fbd cf67 063d 4e9c ca3c dbb1 05bd
00000260: bf11 11bd 2a2b 11bb 7676 23bc cc05 fb3c
00000270: 4e44 28bc 0231 093d e0e1 5bbb e586 25bd
00000280: 4392 21bd 3629 133d baba fc3b 2b85 883d
00000290: 6fe3 9d3c 0d42 c4bc ae34 1d3d 802e 283d
000002a0: dcc4 053c 3809 24bc 9085 e2bc 8f57 88bd
000002b0: 089a 03bd 5f56 af3c 58e2 34bd 4724 7f3c
000002c0: ee67 0ebd a490 8bbd b9dd 7ebd b024 f2bb
000002d0: 6488 e23b 9b82 59bd 8109 853d 4a25 69bd
000002e0: 3ec3 423c fb77 febc e956 54bd bffe 3fbd
000002f0: 1d98 5bbd 6b3a ad3c 1be3 263c dd62 0d3d
00000300: 438a 703d b960 3dbd 5362 0abd cd03 b73c
00000310: 9a1a fcbc 50f8 fb3c 9ac4 2c3b 7037 4cbd
00000320: 2ff8 5ebb 487e 1bbd c70f 303c 1592 543d
00000330: 2a8d 36bd d686 14bd 900b 9a3a 0fb2 353d
00000340: 90dd a3bc 533b 12bd 5bce 933c 0599 a53d
00000350: 2f8a 94bd e530 f23b cf24 84bd 174c 8bbd
00000360: 6075 3abd f229 15bd 8a3b 32bc 3d2d c5bc
00000370: ea65 58bd bca3 283d a06f 073c 3925 0d3d
00000380: 3c5e 6dbd 8eb3 04bd 718f 203d 0366 2b3c
00000390: 8001 0f3d 0bef 08bb cb57 afbb 4042 ac3c
000003a0: 497a 0a3d 905d de3c 4dcf 5b3d 2e98 ce3c
000003b0: 9e33 6fbc b75c 143d a875 273d 4428 0a3b
000003c0: eedd 2c3d 49b6 083c dd82 b9bc c5b6 46bd
000003d0: fde6 75bb c085 1bbd 5e69 5cbb 4c7d bbbc
000003e0: 6674 8cbd 54f2 093d c6f3 2fbd dd2e c53b
000003f0: 5274 403d 71df 49bd 8425 eebb 47a2 b43a
-0.046558626 -0.011753414 -0.04688782 -0.030459823 -0.056143656 -0.008801033 0.041674353 0.05456468
0.019403862 -0.019044496 -0.027785111 -0.03139021 -0.026650056 -0.0035592935 -0.01852371 0.009863563
0.007828362 -0.020508824 -0.04958991 0.031693906 0.019815223 0.019589163 0.0708849 -0.069639556
-0.030551983 -0.0046529965 -0.031115314 0.026033863 -0.049184486 0.0034298284 -0.007745225 -0.026766634
-0.039834686 0.07234819 -0.011040226 -0.008340082 -0.061915293 0.035794243 -0.016504882 -0.02544813
-0.057169605 -0.07506616 0.033164512 -0.08290464 0.017304426 0.061126202 0.02444035 -0.03444575
0.041563988 0.041311424 0.00831624 -0.06730279 0.0128855 0.04789244 0.046400245 0.04457159
0.047137115 0.054456115 -0.04381702 -0.030042304 -0.00016966161 0.05009409 -0.082239345 -0.049336527
0.057027407 -0.02182105 0.010077848 -0.059505213 -0.075305134 0.03687104 0.030818678 -0.05643101
-0.0620833 -0.043545388 -0.024249375 -0.046660174 -0.021446884 -0.029973596 -0.048351314 0.026397182
0.0360028 -0.0028501158 -0.006721183 -0.09136871 0.012895592 0.046848163 -0.060495265 -0.046809632
-0.03232262 -0.0064863283 0.016516494 0.048937846 0.03809537 0.021136552 0.04882997 -0.05041801
-0.046514567 -0.025183564 0.05283481 -0.07137376 0.007358048 -0.0017028478 0.053387146 -0.07990541
-0.0042943037 -0.011039202 0.046782024 0.06383283 0.038545296 0.055344027 -0.049909007 0.019776462
-0.021918084 -0.02474687 0.045342047 0.0065850825 0.040369198 0.02490704 0.0191909 -0.042184666
0.0035085205 0.015519342 0.019082023 0.009036893 0.029584799 0.0117254155 -0.025530564 0.009356851
-0.032239705 -0.030411724 0.020199317 -0.01762205 0.023162514 0.020864388 0.0035254958 -0.022717742
-0.02416368 -0.07109574 -0.003604833 0.021608844 0.026325343 0.069641195 -0.01900296 0.011091963
0.0035965377 0.029500175 0.015971921 -0.025679039 -0.07014621 0.032813843 0.024732735 -0.03264032
-0.035417315 -0.0022150972 -0.009976974 0.030642413 -0.010270191 0.033494003 -0.003355138 -0.04041185
-0.039446127 0.035927974 0.007712689 0.06666025 0.019273488 -0.023957277 0.038380317 0.04105997
0.008164611 -0.010011964 -0.027651578 -0.066573255 -0.032129318 0.02140349 -0.04416117 0.015572614
-0.034767084 -0.068146974 -0.06222317 -0.0073896274 0.0069132317 -0.05310307 0.06495953 -0.056920327
0.01188737 -0.03106307 -0.051840696 -0.046873804 -0.053611863 0.02114602 0.010185982 0.03451811
0.058725607 -0.04623482 -0.033785176 0.02234068 -0.030774403 0.030758053 0.00263623 -0.049857557
-0.003402244 -0.037962228 0.010745949 0.051897127 -0.04456822 -0.036261402 0.0011752713 0.044359263
-0.02000311 -0.035701107 0.018042734 0.08085827 -0.07252919 0.0073910826 -0.06452333 -0.06801622
-0.045522094 -0.036416955 -0.010878453 -0.024069423 -0.052831568 0.041171774 0.00826636 0.034459326
-0.057951197 -0.0323978 0.039199296 0.010461333 0.03491354 -0.0020894434 -0.005351042 0.021027684
0.033808026 0.027144223 0.053664494 0.02521905 -0.014599709 0.036221232 0.04088369 0.002108113
0.042203836 0.008344241 -0.022645408 -0.048514146 -0.0037521713 -0.03796935 -0.003363214 -0.022886895
-0.06858139 0.033678368 -0.04295709 0.0060175494 0.04698593 -0.049285356 -0.007267656 0.0013781273

edge_conv_block.edge_conv.nn.3.bias f4 [256]
00000000: c054 143d 7b55 443c 9cec 79bd bb12 94bc
00000010: b1f2 74bd 6937 32bd 9223 77bd 97bb 36bd
00000020: 0ab1 27bd 9277 e73c cb3a 243d dd2d 693d
00000030: aefc 94bc 37e9 41bd 778f d03a bab5 973b
00000040: bd3e 113d 751d 2fbd 4b1e a83c a72c 7d3d
00000050: 5138 5e3d 2898 0f3d 38ac 293d 2b29 24bd
00000060: 6024 0aba 37e3 4fbc 6ec0 f4bc 1591 6f3d
00000070: bfd5 123d 6001 4cbd ba2b 4a3d 561a 3d3d
00000080: 6aec c2bb 9eda 3fbc e50c 49bd 7446 23bb
00000090: d7cf 85bc 3b1b 29bd 9ecb a9bc 2559 eebc
000000a0: ac68 82bb 6a3d 00bd e58a cf3c 7366 1fbd
000000b0: b108 ebbc 91ef 923c 03f5 43bd 5a9b 0bbb
000000c0: 580c 483d b1c1 e23c 97dc 043d 4ddd 663d
000000d0: 22b1 013d 4c09 c63c 8666 5bbd 5f25 a3bc
000000e0: 2c9e ffbc bb40 4f3d 15de 513c 6c1f 0f3d
000000f0: 7aef 73bd 38d1 053d 92f4 0cbd 84ee 133b
00000100: 39e6 803d 736b 693d 0f45 333d 0190 a83c
00000110: 96c0 2cba c843 433b c4b7 14bd 36bb 473d
00000120: 12ac 3ebd 01d7 293d c8d6 393d 9af9 c9bb
00000130: a178 b4ba 9bfc 4f3c dbe9 503d 3349 f7bc
00000140: 3519 1dbd fbfc 3bbd 60b8 8fbc bbc2 823c
00000150: f15f b8bb d461 d6bb 3623 83bc e382 57bd
00000160: 4d59 143d 22be 983c 0e2a 9e3c fc9f 35bd
00000170: 3c94 66bd c9c7 0c3d 23bc e43b 9348 8bbd
00000180: 2a30 c73c 41f6 f1bb 2a89 b83c 22a6 a8bc
00000190: 40a9 85bc ade3 f7bc 6692 d13a 0ef4 cf3c
000001a0: 7e4f 243d f703 7fbc 9d40 5c3b 95cd 6ebd
000001b0: 186e 55bd 3440 0d3c f262 abbc 41fd 0abd
000001c0: dfc8 2e3d e873 1dbd d125 19bd da4b 003b
000001d0: a5ce 1ebd c6e4 223d ca21 13bd 042c 27bd
000001e0: d391 573d 1292 29bd 800b 473d c090 f5bc
000001f0: 3d5f 2abd cbdc a0bb f918 1e3d f279 5e3c
00000200: cbcc 34bd 32be 773c 23ce 803c e1ef 513d
00000210: 046a 12bc be50 083d 1906 b6bc 449e 5cbc
00000220: d93a 5ebc 32ad 43bc a291 db3b 1121 3f3d
00000230: 3cc4 d23c 609a 163b 57dc 6dbd c981 24bd
00000240: 7a63 873c 0694 673c c1b0 453c e075 923c
00000250: 015e 3f3d 31d4 2fbd 301c 623d a2c3 a33c
00000260: 643d 473d c897 0e3d 95ee 563d b3d2 ffbc
00000270: 44e8 4d3d 3b3d 3bbd 7cd9 32bd bbf8 293d
00000280: 2806 e0bc cf9c f83a b61f c53b ee25 103d
00000290: 8311 753d 5f6e 2dbc 7648 283d 14ff 11bd
000002a0: a60b 1a3d 8b89 45bc cd5f 803d 2fdd 683c
000002b0: 2e68 0b3c 62f4 01bd 7e20 5db9 0d1e cabc
000002c0: cfe4 7abd 4156 6dbd 0874 053d 493a 213d
000002d0: 9083 d6bc 2c11 72bd ab1e 1ebc a4f8 bebc
000002e0: f775 efbc 0280 9fbc e28b 233d 5bd3 50bc
000002f0: 4490 15bd 7516 45bc 3538 4abd 1cc7 d63c
00000300: 387e 203d d7e3 ffbc 1260 693d 8922 3cbd
00000310: fb34 7fbd 95e1 c8bb 9084 1f3d 6e20 ba3c
00000320: d873 24bd 7781 3b3c 2db6 3bbd 3297 42bc
00000330: 3c0e c53c 0d12 6fbd 252b 3e3d c5f8 963a
00000340: d6d2 99bc 0ce3 61bd ae1e 76bd b618 69bd
00000350: 7732 4f3d 8c6a 61bc 1034 913c 0fae 3b3d
00000360: 3b52 55bd cbf0 5f3d c9fc 283d 7d68 9a3c
00000370: df43 aebc e7da 183d c6b5 65bd 1cb4 1c3d
00000380: 6932 e63c c4f1 a03c 4f2e 863c ab71 423d
00000390: 8531 c33c 473f d13c b251 c5bc 66a2 723d
000003a0: 49c4 90bc f8c0 5a3d ed02 4b3d eabe 43bd
000003b0: 08b4 433d 598a 6fbc baa1 9e3c d0e1 533d
000003c0: f4d2 d8bc 3a04 41bd eb79 86ba 1ef1 40bd
000003d0: 7564 b83c 2e0a 7bbd f72d 9ebc 0fc8 0ebd
000003e0: 9ee5 5bbc 6861 31bd 03d0 12bd 5eba e3bc
000003f0: 5fa1 01bd 5b8d 20bd 9f83 8abc f6cd 233d
0.036213636 0.011983271 -0.061016664 -0.018075338 -0.05980176 -0.043509874 -0.060336657 -0.044612493
-0.040940322 0.028255258 0.04009513 0.056928504 -0.018186893 -0.04734155 0.0015911896 0.004629818
0.035460223 -0.0427527 0.020522257 0.061810162 0.054252926 0.035057217 0.041424006 -0.040078323
-0.00052697025 -0.01268845 -0.029876914 0.05848797 0.035848375 -0.049806 0.049358107 0.046167694
-0.005948593 -0.011709837 -0.049084563 -0.002491382 -0.016334457 -0.041285735 -0.020726975 -0.029095242
-0.003979763 -0.03130857 0.025334785 -0.038916063 -0.028690668 0.0179365 -0.047841083 -0.0021302314
0.048839897 0.02768025 0.032436933 0.056363393 0.031663068 0.024174355 -0.05356457 -0.01991528
-0.031203352 0.05059884 0.012809296 0.034942076 -0.059554555 0.03267023 -0.034412928 0.0022572586
0.062939115 0.056987237 0.04376703 0.020576479 -0.0006589977 0.002979504 -0.036308065 0.048762523
-0.046550818 0.04146481 0.045370847 -0.006163788 -0.001376886 0.012694503 0.051004272 -0.030186271
-0.038354117 -0.045895558 -0.017543972 0.015961995 -0.0056266715 -0.0065424237 -0.016008 -0.052615058
0.036217976 0.01864535 0.019307163 -0.044342026 -0.05629371 0.034370217 0.0069804355 -0.06800952
0.024314959 -0.007384092 0.022526342 -0.02058703 -0.016316056 -0.030259931 0.0015989065 0.025384929
0.040114872 -0.01556491 0.0033607848 -0.058301527 -0.052106947 0.008621264 -0.020921204 -0.033932928
0.042672034 -0.038440615 -0.03738958 0.001957646 -0.03877129 0.039768957 -0.035920896 -0.04081346
0.052629303 -0.04139907 0.04859495 -0.029976249 -0.041594733 -0.004909133 0.038598035 0.013578879
-0.04414062 0.01512103 0.015723294 0.051254157 -0.008936409 0.033280127 -0.022219704 -0.013465468
-0.013563835 -0.011943148 0.0067007104 0.046662394 0.025728337 0.0022980198 -0.05807146 -0.040162835
0.016526926 0.014134413 0.012066067 0.017878473 0.04672051 -0.04292697 0.055202663 0.019990746
0.04864253 0.03481272 0.052473623 -0.031228399 0.050270334 -0.04571269 -0.04366444 0.041496973
-0.027346686 0.0018967631 0.006015743 0.035192423 0.059831154 -0.010585397 0.04108473 -0.035643652
0.037608765 -0.012056719 0.062682725 0.0142128905 0.008508725 -0.031727202 -0.00021088307 -0.024672532
-0.061253365 -0.057943586 0.03258136 0.039362226 -0.02618578 -0.059098408 -0.0096508665 -0.02331192
-0.029231055 -0.019470219 0.039928325 -0.012745704 -0.036514536 -0.01202928 -0.04937001 0.02621799
0.03918287 -0.031236572 0.056976385 -0.045931373 -0.062306385 -0.006130407 0.03894478 0.022720542
-0.04014954 0.011444441 -0.045828033 -0.011876868 0.024054639 -0.058366824 0.046427865 0.0011518231
-0.018777292 -0.05514817 -0.060087852 -0.05690833 0.050585236 -0.013758313 0.01772502 0.045820292
-0.052080374 0.054672997 0.0412567 0.018848652 -0.021272598 0.037318137 -0.056081556 0.038257703
0.02810021 0.019646533 0.016379504 0.047471683 0.023827324 0.025542868 -0.024086807 0.059236906
-0.017671721 0.053406686 0.049563337 -0.04778949 0.047779113 -0.014620387 0.019364227 0.051729023
-0.026467778 -0.04712317 -0.0010259723 -0.047104947 0.02250884 -0.061289005 -0.019309027 -0.03485876
-0.013421444 -0.043305784 -0.035842907 -0.027798828 -0.031648036 -0.039197307 -0.016908465 0.03999134
